name: "redundancy_ik_net_16s_100m1_4d1_1i_12k_4d2_100m2"
layer {
 name: "input"
 type: "MemoryData"
 top: "input"
 top: "__dummy_label1"
 memory_data_param {
  batch_size: 32
  channels: 9
  height: 1
  width: 1
 }
}
layer {
 name: "ip0"
 type: "InnerProduct"
 bottom: "input"
 top: "ip0"
 param {
  lr_mult: 1
  decay_mult: 1
 }
 inner_product_param {
  num_output: 100
  weight_filler {
   type: "gaussian"
   std: 1
   sparse: 1
  }
  bias_filler {
   type: "constant"
   value: 0
  }
 }
}
layer {
 name: "sig0"
 type: "Sigmoid"
 bottom: "ip0"
 top: "sig1"
}
layer {
 name: "ip1"
 type: "InnerProduct"
 bottom: "sig1"
 top: "ip1"
 param {
  lr_mult: 1
  decay_mult: 1
 }
 inner_product_param {
  num_output: 100
  weight_filler {
   type: "gaussian"
   std: 1
   sparse: 1
  }
  bias_filler {
   type: "constant"
   value: 0
  }
 }
}
layer {
 name: "sig1"
 type: "Sigmoid"
 bottom: "ip1"
 top: "sig2"
}
layer {
 name: "ip2"
 type: "InnerProduct"
 bottom: "sig2"
 top: "ip2"
 param {
  lr_mult: 1
  decay_mult: 1
 }
 inner_product_param {
  num_output: 100
  weight_filler {
   type: "gaussian"
   std: 1
   sparse: 1
  }
  bias_filler {
   type: "constant"
   value: 0
  }
 }
}
layer {
 name: "sig2"
 type: "Sigmoid"
 bottom: "ip2"
 top: "sig3"
}
layer {
 name: "ip3"
 type: "InnerProduct"
 bottom: "sig3"
 top: "ip3"
 param {
  lr_mult: 1
  decay_mult: 1
 }
 inner_product_param {
  num_output: 100
  weight_filler {
   type: "gaussian"
   std: 1
   sparse: 1
  }
  bias_filler {
   type: "constant"
   value: 0
  }
 }
}
layer {
 name: "sig3"
 type: "Sigmoid"
 bottom: "ip3"
 top: "sig4"
}
layer {
 name: "redundancy"
 type: "InnerProduct"
 bottom: "sig4"
 top: "redundancy"
 param {
  lr_mult: 1
  decay_mult: 1
 }
 inner_product_param {
  num_output: 1
  weight_filler {
   type: "gaussian"
   std: 1
   sparse: 1
  }
  bias_filler {
   type: "constant"
   value: 0
  }
 }
}
layer {
 name: "normalized_redundancy"
 type: "Sigmoid"
 bottom: "redundancy"
 top: "normalized_redundancy"
}
layer {
 name: "_debug_redundancy"
 type: "Sigmoid"
 bottom: "redundancy"
 top: "_debug_redundancy"
}
layer {
 name: "target"
 type: "MemoryData"
 top: "_target"
 top: "__dummy_label2"
 memory_data_param {
  batch_size: 32
  channels: 6
  height: 1
  width: 1
 }
}
layer {
 name: "target_reshape"
 type: "Reshape"
 bottom: "_target"
 top: "target"
 reshape_param {
  shape {
   dim: 0
   dim: -1
  }
 }
}
layer {
 name: "concate"
 type: "Concat"
 bottom: "target"
 bottom: "normalized_redundancy"
 top: "sig5"
}
layer {
 name: "ip5"
 type: "InnerProduct"
 bottom: "sig5"
 top: "ip5"
 param {
  lr_mult: 1
  decay_mult: 1
 }
 inner_product_param {
  num_output: 100
  weight_filler {
   type: "gaussian"
   std: 1
   sparse: 1
  }
  bias_filler {
   type: "constant"
   value: 0
  }
 }
}
layer {
 name: "sig5"
 type: "Sigmoid"
 bottom: "ip5"
 top: "sig6"
}
layer {
 name: "ip6"
 type: "InnerProduct"
 bottom: "sig6"
 top: "ip6"
 param {
  lr_mult: 1
  decay_mult: 1
 }
 inner_product_param {
  num_output: 100
  weight_filler {
   type: "gaussian"
   std: 1
   sparse: 1
  }
  bias_filler {
   type: "constant"
   value: 0
  }
 }
}
layer {
 name: "sig6"
 type: "Sigmoid"
 bottom: "ip6"
 top: "sig7"
}
layer {
 name: "ip7"
 type: "InnerProduct"
 bottom: "sig7"
 top: "ip7"
 param {
  lr_mult: 1
  decay_mult: 1
 }
 inner_product_param {
  num_output: 100
  weight_filler {
   type: "gaussian"
   std: 1
   sparse: 1
  }
  bias_filler {
   type: "constant"
   value: 0
  }
 }
}
layer {
 name: "sig7"
 type: "Sigmoid"
 bottom: "ip7"
 top: "sig8"
}
layer {
 name: "ip8"
 type: "InnerProduct"
 bottom: "sig8"
 top: "ip8"
 param {
  lr_mult: 1
  decay_mult: 1
 }
 inner_product_param {
  num_output: 100
  weight_filler {
   type: "gaussian"
   std: 1
   sparse: 1
  }
  bias_filler {
   type: "constant"
   value: 0
  }
 }
}
layer {
 name: "sig8"
 type: "Sigmoid"
 bottom: "ip8"
 top: "sig9"
}
layer {
 name: "output"
 type: "InnerProduct"
 bottom: "sig9"
 top: "output"
 param {
  lr_mult: 1
  decay_mult: 1
 }
 inner_product_param {
  num_output: 16
  weight_filler {
   type: "gaussian"
   std: 1
   sparse: 1
  }
  bias_filler {
   type: "constant"
   value: 0
  }
 }
}
layer {
 name: "loss"
 type: "EuclideanLoss"
 bottom: "output"
 bottom: "input"
 top: "loss"
}
